deep_test/wine_torch.pt (torch, 1663 bytes, 2 tensors)

weight f4 [10, 4]
00000000: 59e7 6abe 7224 e5bc 97f2 d5be a9e4 a0be
00000010: 9163 0d3d 0db1 63bc bd5f 963d 401f dcbe
00000020: 6e6f b4be af80 a6be 6697 acbe cceb 9bbe
00000030: 7376 643e b261 56be 7361 0d3e 03d9 f53d
00000040: 8650 7c3f be18 41be ac35 afbe 4c3e 983e
00000050: b2c0 6040 29ab 973e 707d 28be f449 b63d
00000060: 425e 26c0 5428 5fbe f262 fb3e 63c7 c43e
00000070: cf2a 32c0 497c 0a3f e6d3 093f 3276 383f
00000080: 1651 2ebf afb0 a6bd 8ade 333e 40de 833e
00000090: e3c2 763e 1235 9e3d 552c a1be ed1d b0be
-0.22939815 -0.02797148 -0.41786644 -0.31424454 0.034518782 -0.013897193 0.073424794 -0.42992592
-0.35241264 -0.32520053 -0.33709258 -0.30453336 0.2231081 -0.20935705 0.13806705 0.12004282
0.9856037 -0.18857095 -0.34220636 0.2973503 3.5117612 0.29622772 -0.164541 0.08900824
-2.599503 -0.21792728 0.49098927 0.3843337 -2.7838628 0.54095894 0.53838956 0.7205535
-0.6809248 -0.081391685 0.1756536 0.257555 0.24097781 0.07724966 -0.31479135 -0.34397832

bias f4 [10]
00000000: 1e08 c7be 7c71 673e a5db c9be 04dd 083d
00000010: fbab 8bbe 80df 7740 ffb0 72bf 9ee0 f2bf
00000020: e55b 23be ce1a e5be
-0.3887338 0.22601885 -0.39425388 0.033413902 -0.27279648 3.8730164 -0.94801325 -1.8974798
-0.15953024 -0.44747013
